models/rnn_sentiment_model.pth (torch, 356814 bytes, 11 tensors)

embedding.weight f4 [170, 128]
00000000: 165e ad3e 0922 803f 2c32 7cbf beff 873f
00000010: 71b4 2abf 62b4 9c3e ef32 983f 3513 6abe
00000020: 3b36 0ebf 9fc9 473f 41ff a83e 1f6e 81bf
00000030: c237 a8be 7e3f ee3e 54cf 01be 8872 143f
00000040: cd21 6bbf 91e5 0540 e25b 09bf 364f b73e
00000050: d54c 16be c134 b13f 6320 773e e167 3a3c
00000060: d354 debf a902 5c3f d095 0dbf 719a 7c3e
00000070: aaf7 c6be 6047 7b3e bef5 a2bf af8c e6be
00000080: cf05 103f 0074 7c3f 4143 b9bf 20fc c3bf
00000090: de9f 05c0 236e e8be d232 ec3e 819f 993e
000000a0: 01ea 5ebf c200 8b3e e26c ed3e 3257 93be
000000b0: c653 3f3d 1ee7 3dbe c665 763f 7e7e 923c
000000c0: ddb2 8cbf 6660 143f 2205 dabe f223 083f
000000d0: e145 76bf 4f4c 1e40 509c d13f 624a e9bf
000000e0: 136e 303f db4a ff3e 316c 6e3f d1c4 d7bf
000000f0: e983 efbe 5053 2abf c0d2 553f 2d95 9abe
00000100: 61b1 083f 25f2 0c3c 8c15 9fbd afbf 3bbe
00000110: 71e5 0b3f 0a47 0340 7f75 73bf 0bc5 c83e
00000120: d454 573d f72e 743e 5aa1 60bf 9110 993d
00000130: 3281 7d3f 3089 5bbf ad32 903f 774e 913f
00000140: 2dfa 9cbe f280 2d3f e901 a3bf 86ab ad3f
00000150: 9fbe 9f3e 3791 363f a59e 8fbf ee76 bdbf
00000160: 9d58 ca3f ddec a9bf a715 8f3f e495 63bf
00000170: e540 b3be 9295 f53f fd2f afbf 40b8 69bc
00000180: 400c d4be a669 1d3f 2834 6ebf 35f9 e33f
00000190: b43b 813f 73fa 103f d58a 99bf 4557 81be
000001a0: f3e1 46bf ba4e a8bf 1740 8dbf 4555 f63f
000001b0: b276 2fbf 11ba 7b3e 0e2a 1a3f 682e 873f
000001c0: 98e8 b33f a5c3 18bf 6c95 043f 26c5 a93e
000001d0: 2b07 543f 7759 28bf a9fb b8bf 10a0 4ebf
000001e0: 9f31 903f 2acd 8bbf e3dd 34bf 8f3f 11c0
000001f0: 32bb 81bf cfc8 b53f 75fe 99bf 3a42 7fbf
00000200: cc8c 263f 739d c33c 1b92 99bf 9276 793e
00000210: b65c 7f3d b54d 4fbd 4580 53bd 139e 47bf
00000220: 6b2c 413e 7394 453e 5aac 81bf f541 563e
00000230: 10ee 7f3f ec8b 40bf 4c83 8f3f 7e6e 37bf
00000240: ae1f 66bf 052c 85bf b90a 5ebf 442d 653f
00000250: 2051 9c3f ce07 c6bb 827a cabd 158a 08be
00000260: fb47 263f f952 2b3f 5acd 80bf 5ad7 a63f
00000270: fbe8 2dc0 568c 43bf ebce 19bf 989c 143f
00000280: b47b 713d ed6a 4e3d cb9b b23f adb2 2ec0
00000290: 2ab3 993f 94ac 51bf c1a1 7abd c53f e93f
000002a0: 2a82 6dbf 1a28 713e bb0c 383f 7c76 99bf
000002b0: 6e0b ccbf ae59 8ebf 4ec7 87be 2cde 033f
000002c0: b688 cbbf c9a9 4040 7e2c 333f d4a6 a93f
000002d0: 8057 cbbe e798 0fbf b574 79be b735 97bf
000002e0: 9b08 6dbf 61a7 09bf 7c40 bc3e 16ec 90bf
000002f0: 6941 893d 86f0 033f 8ad0 e4bd cd3d f0bd
00000300: a83b bbbe 0f2e f8bd 721f 963e aeed 2ac0
00000310: b2e1 a43d faed 2d3f 36a0 ac3e 164d 67bf
00000320: b061 5cbe 0377 9c3f f991 883f 23d2 bf3e
00000330: 0e9f e1bf 53cb b9bf 05c3 c03f 4f33 44bf
00000340: be61 c4be 90ff 543e 6f8c a6be 34cf 893f
00000350: afe0 01c0 d834 8bbf e9c4 8dbd 68eb a83f
00000360: b47c 6fbf ea4d 0abe 7c0f bfbe 1967 1dbf
00000370: dcd5 04bf 98a2 97bf e27b cfbd 1b34 ba3f
00000380: 0316 943f 6331 ba3e 96ad 51be 5775 a23e
00000390: d004 423f 25e5 33bf efee ca3f 1775 ccbf
000003a0: 24cc 89be 0708 0cbf 3132 c5be 44a0 7e40
000003b0: ef32 c6bf 2663 9fbe 6c75 90bf 8804 84bc
000003c0: 4fbf 9b3f a76f 4b40 4b05 d0bf fbe9 c33e
000003d0: 8c0b 1d3f 5cf3 a53f a3de 5abf c245 cebf
000003e0: f353 433f fdf5 ea3e 840a 91bf de5f 82bf
000003f0: e2f8 b23f e5ae babf 82b8 373f 58ac c23e
0.33860844 1.0010387 -0.98514056 1.0624921 -0.6668158 0.3060637 1.1890544 -0.2285889
-0.555515 0.78042024 0.33007243 -1.0111731 -0.3285504 0.46532816 -0.12676746 0.5798726
-0.9184845 2.0921366 -0.5365583 0.3580262 -0.14677747 1.3844224 0.24133448 0.011377306
-1.7369636 0.8594156 -0.5530672 0.2466829 -0.38860828 0.24538946 -1.2731245 -0.45029208
0.56258863 0.986145 -1.4473649 -1.5311317 -2.0878825 -0.45396528 0.46132523 0.30004504
-0.8707581 0.27149016 0.46372133 -0.28777462 0.046710752 -0.18545195 0.96249044 0.017882582
-1.0992085 0.5795959 -0.4258204 0.5317985 -0.96200377 2.4734075 1.6375828 -1.8225825
0.6891796 0.49861798 0.93133837 -1.6856939 -0.46780327 -0.66533375 0.83524704 -0.30191937
0.5339566 0.008602654 -0.077677816 -0.1833484 0.54646975 2.0512109 -0.9510116 0.39212832
0.052571133 0.2384604 -0.877462 0.07473863 0.9902526 -0.85756207 1.1265465 1.135207
-0.3065962 0.6777488 -1.2734958 1.356797 0.3120012 0.7131533 -1.122029 -1.480192
1.5808293 -1.327541 1.1178483 -0.8890059 -0.35010448 1.918627 -1.368652 -0.01426512
-0.41415596 0.6148933 -0.93048334 1.7810427 1.0096345 0.56632155 -1.1995493 -0.25261894
-0.7768852 -1.3149025 -1.1035184 1.9244772 -0.6854049 0.24582697 0.6022042 1.0561037
1.4055357 -0.5967353 0.517905 0.33158225 0.8282344 -0.6576151 -1.44518 -0.80712986
1.1265143 -1.0921986 -0.7065107 -2.2695043 -1.0135252 1.4201907 -1.2030779 -0.9971043
0.6505859 0.023878789 -1.1997713 0.24361637 0.062344275 -0.050611217 -0.051636 -0.7797558
0.188646 0.1929491 -1.0130723 0.20923598 0.9997263 -0.75213504 1.1211944 -0.7165297
-0.8989209 -1.0404059 -0.8673511 0.89522195 1.2212257 -0.006043411 -0.09886648 -0.13333924
0.64953583 0.6692348 -1.0062668 1.303447 -2.717345 -0.7638601 -0.60081357 0.58051443
0.058955863 0.05039494 1.3953794 -2.7296555 1.2007802 -0.8190396 -0.061189417 1.8222586
-0.9277674 0.23550454 0.71894425 -1.1989284 -1.5940988 -1.1121118 -0.26519245 0.5151088
-1.5901096 3.0103629 0.69989765 1.3254037 -0.39715195 -0.56092685 -0.24360926 -1.1813267
-0.92591256 -0.53771025 0.36767948 -1.1322048 0.06701929 0.51538885 -0.11172588 -0.117305376
-0.36568952 -0.1211816 0.29320866 -2.6707568 0.080508605 0.6794125 0.3371598 -0.90352
-0.2152164 1.222382 1.0669547 0.3746501 -1.7626665 -1.4515175 1.5059515 -0.7664079
-0.3835582 0.20800614 -0.32529017 1.0766358 -2.0293386 -1.0875502 -0.06922323 1.319684
-0.93549657 -0.13506284 -0.373165 -0.6148544 -0.51888824 -1.1846495 -0.10131051 1.4547151
1.1569217 0.36365804 -0.20476374 0.31730148 0.75788593 -0.7027152 1.5854167 -1.5973233
-0.2691356 -0.5469975 -0.38514856 3.9785318 -1.5484294 -0.31130332 -1.1285834 -0.016115442
1.2167758 3.1786897 -1.6251615 0.3826445 0.61345744 1.2964892 -0.85495967 -1.6115038
0.7629997 0.458908 -1.1331334 -1.0185506 1.3982203 -1.4584624 0.7176591 0.38022113

rnn.weight_ih_l0 f4 [128, 128]
00000000: 6a27 953d bcb8 363b 96b3 9abd 43ec efbc
00000010: 7c33 683d f0e0 76bd 7138 a7bc dce8 68bd
00000020: 912c 673d 66f9 1dbd aca9 f0bc b9b2 523d
00000030: cc05 4b3d e39f c1bd 76cd 0abc 7f8f e5bb
00000040: 19d6 9bbd 0f44 a63d bd85 21bd 6412 da3b
00000050: 611e 553d 7848 153d 0fd6 933c 11cc a33d
00000060: 2d1b 56bd 838f 2fbd 70b1 8cbd 707b 58bd
00000070: dcea b6bd 31b7 efbc b0f8 883b 2eda 83bd
00000080: c965 7dbd fefd fb3c ff5e 07bc d4dc 713d
00000090: 748b 40bd c094 0d3d d013 c0bd 3611 62bb
000000a0: 7f42 103d af0b afbc 520f 6f3d 0f34 b7bd
000000b0: afcd 0e3d 762a 163d 790f 01bd 26b1 eebb
000000c0: 079d aa3d a3f6 62bd fdfb b53c 48c2 053c
000000d0: f20a eebb bddd a03d 5ade 01bd 2407 1e3c
000000e0: 62b3 57bd 8161 0d3c 9224 27bd 87a7 dcbb
000000f0: 7695 b23d 0c96 833d 3e87 adbc 187e a3bd
00000100: 6079 73bd 3761 943d 5a48 883d fcde 3abb
00000110: 3ffd 84ba 4c5f 413a 5c8c bd3d 5995 2f3d
00000120: b5de 2bbc dfc4 d8bc 89e2 84bd 8c69 c53c
00000130: 5ed5 46bd 0f57 303b 0c15 91bd 58fc 8a3d
00000140: baf3 323d 3e78 813d 2763 78bd b1f0 a1bb
00000150: 33d2 9abd 6f36 4cbd 14ba 23bd c0f5 8cbd
00000160: 5db9 89bb 0bb0 b2bb fe5f 95bc c303 d9bc
00000170: 7aad 403c 6bc5 a6bd dcd4 55bd 96b5 a9bb
00000180: 771e 823d cff5 4fbd 730d 8c3d e4a9 313b
00000190: dd4f a4bd a7f1 04bb 8e8f 0a3d 2084 b3bd
000001a0: 6a2e 85bd 3cb1 5fbd 29bf f23c fecf 32bb
000001b0: 9a8c 19bd afce 27bd 7bbe c5bc b4a9 40ba
000001c0: 2db0 9ebd c4b4 b53c fa8f 23bd 7fe3 a3bd
000001d0: 4199 513d 5277 b63d b9e9 d8bc 4d75 21bd
000001e0: 6a2d 82bd d219 203d d02b 463d f4b6 13bd
000001f0: 6408 09bd f434 94bd a58c 903d 9e66 763d
00000200: 3146 893d 772a abbc c3d1 233d e811 f9bb
00000210: 5ab0 b03b 4875 d3bc e9ff d03c 5ead 923c
00000220: 1525 08bd 7062 01bd 4dce 7c3d 44c1 20bd
00000230: c3dd 243d 5c52 b2bd f4f1 273d 56f5 a6bd
00000240: e4d3 aa3d 4ba9 043d e95e a53c 6b88 aebd
00000250: 3766 b73d 1b0b 4bbd 3e26 a7bd 04ea 323d
00000260: e9b0 ba3d 9d45 8a3c c7e5 91bd ef8d 79bd
00000270: bbf0 abba 81e5 0fbd f93c c9bb e3ae 2dbd
00000280: 5bed 86bd c7c9 af3c eb7e 6abd 2e7d 9f3d
00000290: 9da4 5d3d e3ee 993d 667b 973d 2db1 75bd
000002a0: 7dbf 1e3d b105 253d 4300 59bd a6d0 b7bc
000002b0: fcfe 4c3d 9552 2a3d bf5b e9b9 bd6d 6e3d
000002c0: 4bd1 953d 00b0 74bd e4bc 5a3d cdcc 7a3d
000002d0: 5434 d1bc 59ef 633d 170b 503d 46b0 95bd
000002e0: e9ba 45bd 9e74 a1bd 8cb9 a73d 903f 2bbc
000002f0: 240e 263d 743d 87bd ff2c aebd 7aa4 4cbd
00000300: f644 2f3d 233d bfbc a8ff d93c 205a 003d
00000310: a653 5b3d 5f20 9c3c c710 ae3c 57e2 28bd
00000320: 677c 8fbd 7d7c c23b 2bad 6d3d 0665 9e3c
00000330: d058 6a3d 5dd2 ba3d 2307 6c3d 417a 9ebc
00000340: a1d5 4c3d 65ed 1db9 f79a 0d3d a44d 84bd
00000350: 02d7 9fbc 3a4c 473d 1fc5 d8bc b0da 8bbd
00000360: 0b33 b63c a864 c63b 1f82 083b dc3d 09bd
00000370: 175c 39bd fcf1 693d c423 8fbc 9a52 9e3c
00000380: 0acd a2bc 9329 15bd eae7 573c c79c c3bd
00000390: ed72 15bd 7301 923d 6eac 39bd 12e0 7bbd
000003a0: c2d7 843c cb85 36bd 30d0 1fbc 5405 15bd
000003b0: acb4 013d 2904 823c 9750 24bd 1794 a83d
000003c0: 9886 97bd c8d3 d63c 02df 933d 5a6d b6bd
000003d0: c265 203d 9a71 74bd 83eb 2bbd d691 1c3d
000003e0: efd4 6ebb 9ff7 e6bc 6c13 6c3d b032 003d
000003f0: 9f2d 40bd 48f6 03bd f221 a43d 22e5 b3bb
0.07282908 0.0027881106 -0.075537845 -0.029287463 0.056689724 -0.06027311 -0.020412656 -0.056862697
0.056438986 -0.038567923 -0.02937778 0.051439974 0.049566075 -0.09454324 -0.008471837 -0.0070056315
-0.07609195 0.0811845 -0.039434183 0.0066550244 0.052030925 0.036446065 0.018046407 0.07997907
-0.05227201 -0.042861473 -0.06869781 -0.052852094 -0.089315146 -0.029262157 0.0041800365 -0.06438099
-0.061864648 0.030760761 -0.008262395 0.05904849 -0.047007993 0.034565687 -0.09378779 -0.0034495122
0.035219666 -0.021367876 0.05836422 -0.08945476 0.034864124 0.036661588 -0.031508896 -0.0072843013
0.08330732 -0.055410992 0.022214884 0.008163996 -0.0072644884 0.07854793 -0.03170619 0.009645257
-0.052661307 0.008629204 -0.04080636 -0.006733838 0.08719914 0.064251035 -0.021182653 -0.07983035
-0.059441924 0.07245105 0.06654425 -0.0028514257 -0.0010146274 0.0007376566 0.09255287 0.04286704
-0.010490109 -0.026461063 -0.06488521 0.02409818 -0.048543327 0.002690736 -0.070840925 0.06786412
0.043689467 0.063217625 -0.060641434 -0.0049420227 -0.075596236 -0.0498566 -0.03997238 -0.068828106
-0.004203005 -0.005453115 -0.01823425 -0.026491052 0.01176011 -0.08143123 -0.05220495 -0.0051791174
0.06353467 -0.05077153 0.06838503 0.002710932 -0.08023045 -0.0020285638 0.03382831 -0.08765435
-0.065029934 -0.054612383 0.029632168 -0.0027284618 -0.037487604 -0.040968593 -0.02413868 -0.00073495065
-0.077484466 0.022180922 -0.03993223 -0.08002376 0.051171545 0.08909477 -0.026478635 -0.039418507
-0.06356318 0.039087124 0.048381627 -0.03606315 -0.033455268 -0.072366625 0.07058076 0.060156457
0.06702841 -0.020894272 0.039994966 -0.0076010115 0.0053921165 -0.02581276 0.025512652 0.017904934
-0.03323849 -0.031588018 0.06172018 -0.039246812 0.04025055 -0.08707115 0.04100223 -0.08152263
0.08341196 0.032388013 0.020186858 -0.085221134 0.08955043 -0.049571138 -0.08161591 0.043680206
0.09115774 0.016878897 -0.07123905 -0.060926374 -0.0013118008 -0.03513098 -0.0061413017 -0.042403113
-0.06588241 0.02145852 -0.057249945 0.07787548 0.054112066 0.07516267 0.07396583 -0.05998342
0.038756836 0.04028863 -0.052978765 -0.022438359 0.05004786 0.041582663 -0.0004450958 0.058210123
0.0731531 -0.05973816 0.053402796 0.06123047 -0.025537647 0.05564818 0.050791826 -0.07309012
-0.048273955 -0.07883571 0.08189687 -0.010452166 0.04054083 -0.06603518 -0.08504676 -0.049961545
0.042790376 -0.023344582 0.026611164 0.03133595 0.05354657 0.019058404 0.021248234 -0.04123148
-0.0700615 0.0059352503 0.058026474 0.019335281 0.057213604 0.09122155 0.057623994 -0.019345405
0.05000842 -0.00015061123 0.034571614 -0.06460121 -0.019511703 0.04865668 -0.026461182 -0.06828821
0.022241136 0.0060544796 0.0020829511 -0.03350626 -0.04525384 0.05711554 -0.017473109 0.019326497
-0.01987316 -0.0364166 0.013177851 -0.09551387 -0.036486555 0.07129183 -0.045330457 -0.061492987
0.016216163 -0.04456119 -0.009754226 -0.036382034 0.031666443 0.015871124 -0.04011592 0.08231371
-0.073987186 0.026224032 0.0722027 -0.08907576 0.039159544 -0.05967865 -0.04197265 0.038225017
-0.0036442836 -0.028194247 0.05763571 0.03129834 -0.046918508 -0.032217294 0.08014287 -0.0054899612

rnn.weight_hh_l0 f4 [128, 128]
00000000: 4621 07bd 3870 3a3d a8e8 66bd 6ab5 683d
00000010: d34a 4fbc f13c 9bbd 4ea0 6dbc 43e8 40bd
00000020: 048a 883d 632a 22bd 895a 9a3c ebaf 76bd
00000030: 5f7d fb3c ba93 233d b257 8e3b 043a 8abd
00000040: 8380 883d 965c 4f3c 2dd8 033d 4863 85bd
00000050: 8aa9 893d 3ed1 763c 52a2 723d 6370 9f3d
00000060: 4d1f 3bbd 51cf 5c3d 495b debc e04b 94bb
00000070: 7840 a1bc 135f 21bd f3da 8bbd a9af 8a3d
00000080: 0837 2abd eaa0 483c c249 983b def4 9ebb
00000090: ed6a 88bc ec4b 82bd 9f25 58bc c1c3 fc3c
000000a0: 011e 583d 49d8 bebc 0f2a 22bd 01e5 45bc
000000b0: 731a 77bd ff54 65bd 97e2 133d 1f53 743d
000000c0: 0a2c 5abd f365 21bd d984 15bc 6b3c 613d
000000d0: 6ac4 73bd eaea 20bd 48b8 d93a 8612 a93d
000000e0: 1d7e a5bd 5240 ab3c f044 313d 06b3 a93d
000000f0: 089d 1ebc 626c 67bd 8065 be3d d545 7dbd
00000100: 9865 8fbd 4601 9e3d 7ed3 08bd b314 88bd
00000110: 0f22 bb3c d58f 283d 367b a6bd 722c 56bd
00000120: 3f62 3ebd 2386 12bc 78ee cf3c 7942 32bd
00000130: c61d 1c3d 8c7a c13c af0d 553d 7dd3 6cb9
00000140: b034 9b3d 9b2d 67bd 576a 0d3d a9ad a9bd
00000150: b877 93bd d0a0 94bc 96f9 573d 9037 c23c
00000160: 2659 30bd b080 94bd e947 48bd f776 893d
00000170: bb3e 6abc 8cf7 ec3c e3a0 fb3c fa90 0e3c
00000180: 9e13 363d 1601 a8bd 6bd5 7a3d 148d 9f3d
00000190: 0f36 af3d d4d5 a2bd 139e dfbc 143f 29bd
000001a0: b404 a53c fe77 bdbd 25a3 183c 6764 863d
000001b0: 1275 b7bb 70cb bfbc ccfc 8c3c c248 b1ba
000001c0: ba2e aa3c c34d a6bc 5cb0 02bd 3f8a a8bd
000001d0: 599b 9d3c 62dd 613d 3d30 50bd ee0a e13c
000001e0: c979 e3bc d00a 9abd b75f 11bd 11aa 15bd
000001f0: 1443 ddbc bde2 de3c b166 8b3c ae03 21bd
00000200: 52d1 dbbc 0749 2cbd 23d0 853d eafe 9e3d
00000210: 301c 9e3d 133e 39bd e7f2 8fbd 2039 5f3d
00000220: d8d2 1cbc a6f0 953c 36ba 44bd 3a90 803d
00000230: 7806 b6bc a795 7d3d 2ec5 7bbd 786f 04bc
00000240: 56f0 113d cdc0 a63d a3c7 703d 0fb0 4d3d
00000250: c762 72bc 082b 57bd 05f3 3d3d adb3 7ebd
00000260: 704c eabc 2f6a d53c 581a 00bd 7db7 8c3d
00000270: 9ba8 963d 5d1a 573d 81e1 863c 106d 48bd
00000280: fbfc b83d 1e59 003d 720b 703d e318 aa3d
00000290: 6226 24bd a563 91bd 80c7 5dbd 1bf0 29bd
000002a0: 3890 fc3c 310e 6e3d 6978 7cbd f227 f9bc
000002b0: 9fd8 6dbd 0c6f 8dbd c219 803d 34f4 b43d
000002c0: f6df a23d e008 093d 6075 e2bc 1954 b83b
000002d0: 3d28 833d 171b a1bd 6fd3 193d 027b a3bb
000002e0: dcb1 893d 1253 3fbd 593c 493c 0bc5 813d
000002f0: c680 e03b ef03 a83d ae37 aabb dcd2 493d
00000300: eb57 e03c edd0 b4bd df23 0b3d 7247 9d3d
00000310: e054 d9bc 7088 373d c9b8 653d 4028 52bd
00000320: 7319 88bd 543d 71bd 98f7 89bc a0e7 803d
00000330: 7fdf 9abd 1641 abbc 133b 7d3c 5328 9fbd
00000340: fac3 92bd dbad 04bd 8995 173d dad3 27bb
00000350: af12 41bd 6e99 283d 5671 54bd b356 29bd
00000360: b55f 663c 1008 1ebd b4a9 783d a1fa 1dbd
00000370: 8552 9a3d 7e6d ba3c 5553 02bd 847d ed3c
00000380: 2658 94bc 0ded aa3d 76b4 abbd 482a a2bd
00000390: 3897 02bd 6faa 2b3c c7d7 7b3d 9d1b 5fbd
000003a0: 872b ae3d c7e7 983d 31d6 1fbd 4083 fe3c
000003b0: d1f5 eeba 37fe 8a3d a685 6ebd 16df 003d
000003c0: 4190 4ebd 2307 90bc ad0c d8bb df74 40bd
000003d0: ad66 38bd e9fc 8dbd fecf 973c 1f79 1cbb
000003e0: 4dfc 38bd 8485 4abd 47e7 2dbc 6792 9c3d
000003f0: 0ff2 b23c a3d5 77bd 2245 533c 4aa1 4cbc
-0.032990716 0.045517176 -0.056374222 0.056813635 -0.012652117 -0.07579983 -0.014503552 -0.047096502
0.066669494 -0.039591204 0.018841999 -0.060226362 0.03069943 0.039935805 0.00434395 -0.06749347
0.06665137 0.012656352 0.032188583 -0.06513077 0.0672179 0.015064536 0.059236832 0.07785108
-0.045684148 0.05390865 -0.027143138 -0.0045256466 -0.019684061 -0.03939731 -0.068288706 0.06771786
-0.04155639 0.012245396 0.0046474645 -0.004850968 -0.016652549 -0.06362137 -0.013192563 0.030855061
0.05276299 -0.023296492 -0.03959089 -0.012078525 -0.06032796 -0.05598926 0.036104765 0.059649583
-0.053264655 -0.039403867 -0.009125912 0.05498926 -0.059513487 -0.03928653 0.0016610706 0.08255486
-0.08080695 0.020904694 0.043278635 0.08286099 -0.009680994 -0.056499846 0.09296703 -0.061834175
-0.07001799 0.07715087 -0.03340482 -0.06644573 0.022843389 0.041152794 -0.08128969 -0.05228848
-0.046480414 -0.0089431135 0.025382265 -0.043520425 0.03811433 0.023618005 0.052015003 -0.000225855
0.07578409 -0.056439977 0.03452524 -0.08285076 -0.07200569 -0.018143088 0.052728258 0.023708135
-0.04305377 -0.07251108 -0.048896704 0.06712144 -0.014297183 0.028926633 0.030716365 0.008701557
0.044452302 -0.08203332 0.061238687 0.077905804 0.08555233 -0.07950941 -0.027297055 -0.04131992
0.020143844 -0.09251402 0.00931624 0.06562119 -0.0055986727 -0.023412436 0.017210387 -0.0013525712
0.020774234 -0.020300752 -0.03190647 -0.08229493 0.019239115 0.055142768 -0.050827254 0.027471032
-0.027768033 -0.075215936 -0.03549167 -0.03653914 -0.027009524 0.027207727 0.01701674 -0.03931015
-0.02683321 -0.04206183 0.065338396 0.07763465 0.0772022 -0.045225214 -0.07028752 0.054497838
-0.009571753 0.018303227 -0.048029147 0.06277509 -0.022219881 0.061910298 -0.061467342 -0.008083217
0.035629593 0.081422426 0.05878414 0.05021673 -0.014794058 -0.052531272 0.04637434 -0.06218307
-0.028600901 0.026051609 -0.031275123 0.06870935 0.07356378 0.052515376 0.01646495 -0.048932135
0.09032627 0.03133499 0.058604665 0.08305528 -0.040075667 -0.07099084 -0.054145336 -0.041488748
0.030830488 0.058119003 -0.06163827 -0.030414555 -0.058067914 -0.06905946 0.06254913 0.088356405
0.079528734 0.03345573 -0.02764386 0.0056252596 0.06404159 -0.07866495 0.037555154 -0.004989029
0.06723377 -0.04671008 0.012282454 0.06336411 0.0068512885 0.08203875 -0.005194626 0.049273357
0.027385673 -0.08828912 0.033969756 0.07679643 -0.02652973 0.04480785 0.056084428 -0.051307917
-0.06645479 -0.058896378 -0.016841695 0.06294179 -0.0756216 -0.020905059 0.015455979 -0.07771363
-0.07166286 -0.032392364 0.037007842 -0.002560845 -0.04713696 0.041161947 -0.051865898 -0.04134245
0.014060904 -0.038581908 0.060708717 -0.038569096 0.075352706 0.022757288 -0.031817753 0.028990515
-0.018108439 0.08345995 -0.083840296 -0.07918221 -0.031882495 0.010477646 0.06148508 -0.054469693
0.08504396 0.07466083 -0.03902263 0.031068444 -0.0018231218 0.06786769 -0.058232926 0.03146275
-0.05043054 -0.017581528 -0.006593308 -0.046986457 -0.045019794 -0.069330044 0.018531796 -0.0023875905
-0.045162488 -0.049443737 -0.010614223 0.076451115 0.021843938 -0.060506474 0.0128949005 -0.012489626

rnn.bias_ih_l0 f4 [128]
00000000: b8dd 68bd dec1 8cbc 5b64 5fbc c0ea 333d
00000010: 03c0 5e3b 7a07 9e3d c06b dc3c db8d e8bc
00000020: 0efe 76bd 0f9a 13bd 5ebd 59bd 0551 a2bd
00000030: b661 5e3d 23f5 22bc 7f13 9dbc 7e63 c9bd
00000040: b3ed acbd fbaf b0bd 9c95 41bd a968 d13a
00000050: a7c2 02bd 9170 85bd 840b d8bc 0625 5bbb
00000060: c807 5ebd 3e02 44bd 084e 963c 9015 113d
00000070: fe3d 48bd 16fa 07bd 16f6 133d d90f 8a3d
00000080: 5df8 033d 5435 353d 8675 d83c 1062 273d
00000090: 8380 d9bc aa7e 613d 5c2d 693d d7ab 2bbd
000000a0: 3a01 00bd 26ad 09bc f063 c8bc 0c2a de3c
000000b0: f845 683d 9026 3ebd 86f5 ba3d a476 d8bb
000000c0: 3ccc d43c bf7c 273d d03d 7a3d 6262 0a3d
000000d0: 182c 893b 9b94 3abd 24fb 2ebd 9c5a 93bd
000000e0: 59b6 39bd 2840 8bbd d5b2 28bd 17ea 08bd
000000f0: 87ab 7d3d 61ee 1c3b faf8 99bd fedd e6bb
00000100: 1a37 1cbd a871 b33c 1ab6 8f3c 40eb dcbc
00000110: 151c 94bd 7d75 1d3d fe90 cc3c 3ae6 b33d
00000120: c3ca 6b3d cf96 f03c d135 cb3d bbbb 993b
00000130: e2dd 34bc 4124 933d 4384 483b 397e b3bc
00000140: 850c a8bd 5579 2e3d cfe9 b83c 2de0 a73b
00000150: c033 1b3d 687e f5bc a06e e4bc 9ce2 21bd
00000160: a52d a0bd 816b 4a3d c3b2 a03d 14d8 953d
00000170: 1914 623d 88af 97bd 79f1 0ebd 6a1b e23c
00000180: 43db 3fbd a445 84bd 44b1 1cbd cf59 67bd
00000190: ea0f ab3d a224 0f3d 6d6d c13d e416 a1bc
000001a0: 4d5d 0f3d 61a9 d23c 4d6a c53c 31ca b13d
000001b0: 3b63 433d 7c29 8b3d 2d4d bfbd 72ca bebc
000001c0: 109c fa3a 74e8 97bd 396a acbd 07f6 ee3c
000001d0: b4d0 9bbc bd51 933d a75d 88bd 1f2f d93c
000001e0: 80b2 01bd 50c3 64bd db1e dbbc 53c8 6cbd
000001f0: ecae 0fbd 76a8 a3bc 75fe 87bd f317 2e3c
-0.056852072 -0.017182287 -0.013634766 0.043925047 0.003398896 0.0771627 0.026906848 -0.028387954
-0.06030088 -0.036035594 -0.05315911 -0.079256095 0.054292403 -0.00994614 -0.019174336 -0.0983343
-0.08443775 -0.086273156 -0.04726182 0.0015976626 -0.031923916 -0.06515611 -0.026372679 -0.0033438816
-0.05420664 -0.0478537 0.018347755 0.035420954 -0.048887245 -0.033197485 0.036123358 0.06741304
0.03221928 0.04424031 0.026423227 0.040865004 -0.026550537 0.055052437 0.056928024 -0.041911926
-0.03125117 -0.008403098 -0.024461716 0.027119659 0.056707352 -0.046423495 0.09128861 -0.00660594
0.025976293 0.04089045 0.061094105 0.03378523 0.0041861646 -0.045551877 -0.042719975 -0.07195017
-0.045339916 -0.06799346 -0.041186173 -0.03342637 0.06193116 0.0023945796 -0.07518192 -0.0070455065
-0.038138486 0.021904781 0.017542887 -0.026967645 -0.07231919 0.038442124 0.024971481 0.087841466
0.057566416 0.029368786 0.09922374 0.0046915687 -0.011039229 0.07184649 0.0030596412 -0.021910774
-0.08205513 0.04259618 0.022572426 0.0051231594 0.03789115 -0.029967502 -0.027884781 -0.039522752
-0.07821206 0.04941893 0.07846596 0.07316604 0.055194948 -0.07406527 -0.034898255 0.027600963
-0.046839964 -0.064585954 -0.03825499 -0.056482133 0.08352645 0.034947045 0.094446994 -0.019664235
0.035001088 0.025715532 0.02409854 0.08681143 0.047702055 0.06795022 -0.09340892 -0.023289893
0.0019119997 -0.07417384 -0.08418698 0.02917005 -0.019020416 0.07193325 -0.06658488 0.026511727
-0.03166437 -0.055850327 -0.026748111 -0.05780823 -0.035078928 -0.01997779 -0.06640331 0.010625827

rnn.bias_hh_l0 f4 [128]
00000000: c1bb 76bd 36a5 c6bd 035f 463d 7fc1 893a
00000010: 37e1 35bd 0133 46bd fb90 9bbd bfe2 583c
00000020: 0910 61bc 5a27 9a3d 3dbf 4cbd afa3 a9bd
00000030: e97f 57bd f586 363d 30f9 103d e22e 7ebd
00000040: df2b 96bd 0cef 3b3d 6644 3dbc 9c09 beba
00000050: 6cc1 4bbd 42d3 f6bc 5d8b 573b 6bc4 423d
00000060: 9071 84bc 09a0 973d d13f 31bd 4d4d 833d
00000070: dffa 41bd a8df c13d 1f30 0d3b 0b3b 313c
00000080: 696d c63d eb50 6cbd 0f8c b73c 2ef3 993b
00000090: 02c4 1bbd e06c bc3d ad2f 04bd 50f2 443d
000000a0: 3a74 823d 45f8 9f3d 6248 c0b9 1383 dabb
000000b0: 968c cbba dfea 59bc 9d82 613d cbf3 08bd
000000c0: 7766 89bc df1a 163d 0be8 823d 2dbc 31bd
000000d0: 5713 b8bd 8f4a 963d 4a09 8ebd 62e3 8b3d
000000e0: 0074 40bd 2364 afbd 6cf2 93bc aba9 36bd
000000f0: 3678 6b3d 84e9 da3c e957 073d 1323 6bbb
00000100: ceb6 703d dbaa 8ebd 4a8b 08bc 7750 95bd
00000110: 95e8 90bd 9f01 8fbc c27f 38bd 007d a2bc
00000120: d63e babb 3b1c fabc 323b fb3c 495d 84bc
00000130: 0d74 ab3d 414d 9fbd 1cc1 7abd e8cb 2e3b
00000140: 1982 903d ba58 9f3d bdc4 973d ed3a a6bd
00000150: e05e 7e3c 0a98 f93b 9c2d 3fbd c705 183d
00000160: 4824 803c 79f4 823d a85c cf3c 6dad de3c
00000170: 5a89 62bd 9e26 053d c8ee 01bd c54e bdbc
00000180: 6a80 f9bc 8419 3f3d 792f 483d 280a 713d
00000190: 71bd 0d3d f34b 78bd ba15 76bc dae6 6fbd
000001a0: 3780 08bd c272 dcbc d238 4b3a 6d92 05bd
000001b0: 81b3 1f3c f5d8 8fbd ec63 51bd 4497 5bbd
000001c0: 2b03 143b 8d2a a0bd f7a0 043d 0fbc 20bd
000001d0: e7e5 b7bc 31bf 183d c66a bb3d d161 47bd
000001e0: b91c 9b3b 4820 19bd d7c8 d0bc fd45 acbd
000001f0: aad8 1e3c 6671 ff3c 5061 38bd fa47 573d
-0.06023765 -0.0969948 0.048430454 0.0010509937 -0.044404235 -0.048388485 -0.07596012 0.013237654
-0.013736733 0.07527037 -0.049987067 -0.08283173 -0.05261222 0.0445623 0.035393894 -0.06205643
-0.073325865 0.04588227 -0.011551952 -0.0014498713 -0.04974501 -0.030130032 0.0032889463 0.0475506
-0.016167432 0.07403571 -0.04327375 0.06411228 -0.04735839 0.09466487 0.0021543575 0.0108173
0.09688837 -0.057694357 0.022405652 0.0046981787 -0.038028724 0.09200454 -0.03227203 0.04808265
0.06369825 0.078110255 -0.00036675023 -0.0066684573 -0.0015529569 -0.013300627 0.055056203 -0.033435624
-0.016772492 0.03664672 0.06391915 -0.04339235 -0.08988064 0.0733844 -0.069353655 0.06830479
-0.046985626 -0.085640214 -0.018059932 -0.0445954 0.05748769 0.026722677 0.033042822 -0.003587906
0.058768086 -0.06966182 -0.00833399 -0.07290738 -0.070756115 -0.017456828 -0.045043714 -0.019834995
-0.00568376 -0.03053104 0.030667875 -0.016157763 0.08371744 -0.07778407 -0.06121932 0.002667183
0.07056064 0.07780595 0.07410572 -0.08116708 0.01552555 0.0076170014 -0.046674356 0.037114885
0.0156423 0.06394286 0.025312737 0.027182305 -0.05530677 0.03250753 -0.03172186 -0.02310885
-0.03045674 0.046655193 0.0488734 0.058847576 0.034604494 -0.060619306 -0.015019828 -0.058569767
-0.0333254 -0.02691019 0.00077523023 -0.032610346 0.009747387 -0.07023803 -0.051120684 -0.053611055
0.0022584896 -0.07820616 0.03238007 -0.039241847 -0.022448493 0.03729171 0.09151225 -0.04867727
0.0047336486 -0.0373843 -0.025486393 -0.08411787 0.009695211 0.031182002 -0.04501468 0.052558877

rnn.weight_ih_l1 f4 [128, 128]
00000000: a29e 09bd 7026 2c3d b1c2 063d 8111 b8bd
00000010: 33e4 cb3c adff 3abd 4580 313d 3701 75bd
00000020: b28b 2dbd 651c 503d a286 91bd ad18 44bd
00000030: c468 af3d 6813 8d3c 1ac5 093d a4b1 a93c
00000040: 99d6 64bd f655 b73d 2bc3 0b3d 9c89 81bd
00000050: 82f2 c43c ea12 203d b3b8 babc f3b5 bfbd
00000060: 2bc8 a2bd 0dd9 0ebc 3ed5 a23c a595 a33d
00000070: cbcb 833d 826e 4d3c 1c61 a1bd 929f f2bb
00000080: 9982 803d 958c dfbc ed51 54bc ad80 273b
00000090: 85ac 853d b531 94bd 688b 37bd b704 773d
000000a0: 9984 8fbd e393 d13c c450 703c dec6 b0bd
000000b0: 4008 63bd ac69 22bd fa66 2f3d d36b c8bb
000000c0: 1f01 3fbc ea8f a3bb 4860 85bd fe1a 1c3a
000000d0: 0468 3c3d 7a1e 85bd 9d19 ddbc b52a 93bd
000000e0: 6f9a 8d3d b814 b8bb 5afb 5fbd 5669 d83c
000000f0: 8131 963d eed6 703d 195d 8e3d 5139 803d
00000100: 0f72 953d 207b 95bd 4918 9dbc 1b13 403d
00000110: 3f74 163d f138 c4bb cdae c9bc 801b 8a3c
00000120: f8ca c33d 44db 9abc 1b77 9f3d 881a bbbb
00000130: cbe3 29bd eca3 28bc a508 b0bd 71da b5bd
00000140: 7e3d 753d b663 afbd 0d6e 91bb 6332 3c3d
00000150: 58d1 80bd ef31 3bbd 18f9 653c 5aea 8d3c
00000160: 1f45 2c3d a2c5 483c 962c ebbc fcfd 04bd
00000170: 2116 c03c 53f2 a63d 5fa2 8fbd 3ed5 91bd
00000180: 0418 c03d 6d03 1b3b bf07 b63d b09e 9fbd
00000190: 1961 633c 11be 833c a266 89bd d04c 91bd
000001a0: 4201 73bd 2a75 53bd 188d 97bb 717b 96bd
000001b0: d0cd a4bd 37d3 41bd 0a2a 4ebd 8be9 8dbc
000001c0: 193c 58bd ca09 a53d aac4 6a3d 3970 70bd
000001d0: de95 343b dc3f 94bd d629 d0bc ff14 40bd
000001e0: bf13 623d 52d3 c53d b226 8d3c 4d96 883d
000001f0: 14c5 5cbd e99d debc 99fe 27bd 2149 123d
00000200: c148 55bc d9f5 9a3d cc3b 3e3d b242 943c
00000210: 0c64 2bbd a50f 1abd 4d82 02bd fbac 82bb
00000220: c9aa fc3b cdfe a9bd 519e c0bb aae6 a0bc
00000230: b9e7 f33a d404 53bd f4d3 a93d 3b55 953d
00000240: 7acf 96bd 9309 3d3d 1a9e d7bc 5d03 903d
00000250: 1ee5 913b b541 ca3c 4c7d cf3c ad02 e83c
00000260: 6858 44bd 072e 363b e6a0 22bb 3294 37bd
00000270: 7b48 893d ab21 f1bc 82f0 52bd 956c 623d
00000280: 2b4b 5d3d 0449 7cbd b99c a93d 97a3 33bb
00000290: a175 8dbd c2f0 26bc af79 e5bc 6d26 bdbc
000002a0: 96be 7dbd 2b69 b8bd 9010 453d 95aa 763d
000002b0: f67c 9cbd dc9f 823c bb7b b03d 1ac3 bcbc
000002c0: a213 dbbc b061 743d 9875 a8bd 110c 8dbd
000002d0: eea1 813d b3de 573d 3b0d 563c 5f93 f63c
000002e0: bc12 97bd d142 133d b762 a73d e7d5 9e3d
000002f0: 946f b23c 9401 0d3c 129a 52bd f874 123d
00000300: 1d72 92bd b9dc a2bd e629 2d3d e968 45bd
00000310: 72bf 37bd d63e 453d 6ada a5bd e1b4 b4bc
00000320: 0d41 53bd 5775 a33d 9a38 40bb 2c7b 063c
00000330: 87f0 61bd 3ee9 2f3d fed4 fd3c 1c45 a7bd
00000340: 2f21 d7bc 3a53 b63d aee3 f6ba 6199 4b3d
00000350: 787c 99bd 9fc7 023c aa9e 7ebd fc17 373d
00000360: 5c27 3abd 1432 4f3d b8f2 9b3d a712 39bd
00000370: 5784 853d 5c62 5ebd 7200 bc3d 59ed 293d
00000380: ab4e aa3d 9983 4d3d f1a6 d43c 5462 9cbc
00000390: b158 0c3d d915 1c3d 5b0b 2cbd 807b 9dbd
000003a0: 6106 193d 28e4 813d e898 1ebd 9289 97bc
000003b0: 4697 923c 9781 9dbd 7a0b 173b c13f 8d3d
000003c0: cd11 323d 0b73 3c3d 7342 0abc 0a22 ae3c
000003d0: af52 023d 980d 853d d821 2b3d 2f79 29bd
000003e0: 2a35 533b 9602 ef3c ef33 bbbd dcfe c9bb
000003f0: 6aea 36bd f42c 873d 3811 693d 0466 1cbb
-0.03359855 0.042028844 0.032900516 -0.089877136 0.024889087 -0.045653988 0.043335218 -0.05981561
-0.042369552 0.05080833 -0.07105757 -0.047875095 0.08564904 0.017221168 0.033635236 0.020714588
-0.05586872 0.089519426 0.034121674 -0.06325075 0.024041418 0.039080538 -0.02279315 -0.09360876
-0.07948335 -0.008718741 0.019877072 0.07987527 0.06435355 0.012538554 -0.0787985 -0.007404276
0.062749095 -0.027288714 -0.012958986 0.0025558874 0.06527046 -0.07236043 -0.044810683 0.06030723
-0.07007713 0.025583213 0.0146676935 -0.08631681 -0.05542779 -0.039651558 0.042822815 -0.0061163693
-0.011657982 -0.004991521 -0.06512505 0.000595495 0.045997635 -0.064999536 -0.026989752 -0.0718588
0.069142215 -0.0056177042 -0.054683067 0.026417416 0.07333661 0.058798723 0.06951351 0.06260932
0.072971456 -0.07298875 -0.01917662 0.04689322 0.036731955 -0.0059882333 -0.024619484 0.016858816
0.095601976 -0.018903382 0.077863894 -0.00570995 -0.041477006 -0.010292988 -0.08595399 -0.08879555
0.059873097 -0.0856394 -0.004438168 0.04594649 -0.06289929 -0.045701917 0.014036439 0.017323662
0.042058107 0.012254151 -0.028707784 -0.03246878 0.023448052 0.081516884 -0.07013392 -0.07120751
0.093795806 0.0023653165 0.08888196 -0.07793939 0.01387813 0.016081842 -0.06709029 -0.07094729
-0.05932737 -0.05162541 -0.004624974 -0.07347763 -0.08047068 -0.04732057 -0.05033306 -0.017323276
-0.05279169 0.08058508 0.05731646 -0.058700774 0.0027555148 -0.07238743 -0.025410574 -0.046895023
0.055194613 0.09659447 0.017230365 0.066692926 -0.053898886 -0.027174907 -0.041014288 0.035714272
-0.013017834 0.07566423 0.046443745 0.018098209 -0.04184346 -0.037612576 -0.031862546 -0.003987906
0.007710789 -0.083005525 -0.005878248 -0.01964124 0.0018608487 -0.051518276 0.0829238 0.07291647
-0.07363792 0.04615171 -0.026320506 0.070318915 0.0044523617 0.024689535 0.0253283 0.028321588
-0.047935873 0.002779843 -0.0024815141 -0.044819064 0.06703278 -0.029435 -0.051498897 0.055279333
0.054026764 -0.06159307 0.082818456 -0.002741074 -0.069072016 -0.010189237 -0.028012125 -0.023089612
-0.061949335 -0.09004434 0.0481115 0.060221273 -0.07641022 0.015945368 0.0861735 -0.02304225
-0.02674276 0.059663475 -0.08225554 -0.06887067 0.06329714 0.052702617 0.013064678 0.030099569
-0.0737662 0.035952393 0.08173125 0.077556424 0.02178172 0.008606333 -0.051416464 0.03575608
-0.07150672 -0.07952256 0.042276286 -0.048195753 -0.04486031 0.04815563 -0.080983 -0.022058906
-0.05157571 0.07981365 -0.0029330612 0.008208077 -0.055161025 0.042947046 0.030985352 -0.081674784
-0.02626094 0.08902593 -0.0018836164 0.04970682 -0.07494444 0.007982164 -0.062163033 0.044700608
-0.045447692 0.050584868 0.07614654 -0.045183804 0.065193824 -0.05429302 0.091797724 0.041486118
0.08315786 0.05017433 0.02595851 -0.019089855 0.03426427 0.038106773 -0.042003017 -0.076895714
0.0373596 0.063423455 -0.03872004 -0.018498216 0.017894398 -0.07690733 0.0023047612 0.06896926
0.043474007 0.04600815 -0.008438694 0.021256465 0.031817134 0.064967334 0.041780323 -0.041375335
0.0032227733 0.029176038 -0.09140765 -0.006164415 -0.04465715 0.06600371 0.056901187 -0.0023864517

rnn.weight_hh_l1 f4 [128, 128]
00000000: 3a9c 34bc e355 89bd 1470 7e3c 0619 64bd
00000010: 30e2 62ba 9bd1 a8bd bcd1 8bbc d0c0 b4bd
00000020: 6e3d 2c3d b898 9abc 67d1 99bd 961b a83d
00000030: 3ee7 a5bc c987 82ba 00d4 823d 044a 52bd
00000040: 4882 95bb a1e1 3c3b 29f9 afbd f8e2 993c
00000050: a44b b9bc 2d24 e43c 33ae a33d cffc 92bd
00000060: 51af 973c 7ba9 343d 815d 28bd 6d6b 383d
00000070: fab6 233d 0287 143c 3065 2dbc a5be 1fbd
00000080: 8b67 6dbd 6cb3 ae3b 1538 76bd 700b b03c
00000090: 4ae5 4f3c 7eb5 ac3c ac72 56bd 0d0d b83a
000000a0: 7335 553d 3afb 493d f16c 5cbd 8869 fe3b
000000b0: 26e1 803c 64b6 a53d 5f75 8e3d f5d9 1bbc
000000c0: b33d 3d3c e13a b93c 1313 92bd c622 453d
000000d0: d2d5 af3d 1f99 ef3b ca21 b33c f9ea 7e3d
000000e0: f78f b13d 2651 c93c b8a5 523d e625 a83d
000000f0: 0e88 8ebd 602c 4c3d 7df4 873d a0fc 843d
00000100: 9242 a5bd 817c 1abd e59d 4a3c ecb9 d03c
00000110: 074c 9a3d 758b a33d 9e0d aabd 6389 68bd
00000120: 7d76 b5bd c690 9ebd 70c6 173d f840 c83c
00000130: 9a4b 0c3d a464 263b 635d 21bc aa45 a13d
00000140: a0e8 9fbc 2b09 923c b781 3abd be10 823c
00000150: d015 743d 99f5 1d3c 5952 563d fb1a 20bc
00000160: b692 b6bd 192e 273c dbe9 c2bd b5bf 70bd
00000170: 8111 84bd 49e9 aabd 5d27 b1bd 1e32 f0bc
00000180: 8db0 4d3c cabf 69bd fb3e 0abd d0aa 74bc
00000190: 327f b23d 8115 8bbd 4f9f 983c 05a4 7ebd
000001a0: c883 22bc d6a8 423d 9e90 0b3c 3f4f 933d
000001b0: 7cc1 9cbd 46a6 95bc 4ee2 96bd 5556 09bd
000001c0: 24dd 8c3d 1efd 00bc 10d6 a53d 04d0 813d
000001d0: 3c16 973c 71fb 9dbc 5356 08bd 3e10 9dbd
000001e0: 355d 493d 3bc4 b2bd 6cb2 38bd 988e e53c
000001f0: cf8d 4dbd f46f 413c 6fe2 273c 1c1b e43c
00000200: 4901 4ebc 6017 cbbc 2c9b a93d da39 96b9
00000210: 261c 84bd bef1 0e3a 2ec5 8cbd 92d8 47bd
00000220: e3ca f4bb 9474 87bd 7d8b 163d eb10 b83c
00000230: 490d d8bc ea1a 803d 9190 a03d 117b ac3d
00000240: 5d10 34bd d83a e83c aee6 9f3d 237c a4bd
00000250: 577b 853d 6cd1 033d ac92 76bd e610 b13c
00000260: 3821 a63d 8d0c 39bd 71d5 a6bd 2ebf a1bd
00000270: 965b a8bd 4a56 3cbd ba16 1d3d fb9b a63d
00000280: 6bdb 65bd f78c 18bd 8e3b 38bd 0681 9fba
00000290: 4b66 b3bc 6a09 1d3d 5db0 6e3d 2ac7 bb3c
000002a0: 1b6c 8e3c 7b37 de3c b38d febc d796 afbc
000002b0: 17e8 86bd d612 8bbd 35af f5bc e384 20bd
000002c0: 3d42 293d d3ff ce3c 770c 6f3d 194d a93a
000002d0: 2690 69bd c803 063d 4e10 8abd 1f8a 913d
000002e0: b287 e2bc fc63 19bd bead 6bbd 9c3c b0bd
000002f0: 2ecf fe3c c145 13bd 04a4 a13d 7bd5 69bd
00000300: d011 ab3d b504 73bc e4e4 aebd 5099 603c
00000310: 3437 9ebd 65eb 873c 3d2a 903d bd85 80bd
00000320: 30fd 523d c2bf 4f3c 4ea7 1d3d b007 f53c
00000330: 54a9 0f3b cebc 4fbd ca23 53bd 98b0 efbc
00000340: 4787 aebd 4465 3f3d f5a6 2dbd c67a 653d
00000350: 17ee b03b 2ab3 9cbd e96e 8fbd 2a00 bbbc
00000360: 41e3 21bd 4b34 b7bd 1cd0 98bc a313 f0bc
00000370: e113 393d 180e 42bc 4733 ee3c 2d48 2e3d
00000380: a1ad 893b ccc5 edbc 6125 67bd 05a9 d0bc
00000390: 31bb 50bd 79c5 a13c d1dc 93bd ebf1 743d
000003a0: 6539 2bbd 29e6 6e3d 392d 5d3d 39d1 403d
000003b0: 8d1a 8b3d f6b9 94bc 68f4 483d cdde b53d
000003c0: 17db 8ebd 032e 773d 51cd 88bd ddad babc
000003d0: 1c19 3c3d 32b1 08bd 14e1 383d 5184 8d3c
000003e0: 156e 2f3d 305b c9bc 463e 87bc 9e51 69bc
000003f0: 849f a53d 43ab 0d3d 1f10 d03c e513 343c
-0.011023575 -0.06705835 0.015529651 -0.055687927 -0.00086549204 -0.08243104 -0.017067783 -0.088258386
0.04205077 -0.01887165 -0.075106435 0.082083866 -0.020251866 -0.000995868 0.06388092 -0.051340118
-0.00456265 0.0028821009 -0.085924454 0.018784985 -0.022619076 0.027849281 0.0799221 -0.07177126
0.018516215 0.04410694 -0.041104797 0.045024324 0.039969422 0.0090653915 -0.010583207 -0.039000172
-0.057960074 0.0053314473 -0.060112078 0.021489829 0.012688944 0.021082636 -0.052355453 0.0014041975
0.052052926 0.049311854 -0.053814832 0.007764045 0.01573236 0.08091429 0.069559805 -0.009512414
0.011550355 0.022611083 -0.07132544 0.048128866 0.08585705 0.0073119546 0.021866698 0.062235806
0.08670037 0.024574827 0.051427573 0.082103536 -0.06959544 0.049847007 0.06638429 0.06493497
-0.08069338 -0.037716392 0.012366747 0.02547928 0.07534032 0.07985584 -0.083033785 -0.056771647
-0.088604905 -0.07742457 0.03705448 0.024445042 0.034251787 0.0025389576 -0.009848925 0.078746155
-0.019520104 0.017826637 -0.045533862 0.015877124 0.059591115 0.009641075 0.052324627 -0.009772058
-0.08914702 0.010203862 -0.09517261 -0.058776576 -0.06448651 -0.08345277 -0.08650086 -0.029320773
0.0125543 -0.05706767 -0.03375147 -0.014933303 0.08715667 -0.06791211 0.018630652 -0.06216814
-0.009919114 0.047524296 0.008518366 0.07192849 -0.07654092 -0.018267762 -0.07367383 -0.0335296
0.06878117 -0.007872848 0.0809747 0.06338504 0.01844322 -0.019284936 -0.03328545 -0.076691136
0.049161155 -0.08728834 -0.04509203 0.028022096 -0.050184067 0.011806477 0.010246857 0.027844958
-0.012573549 -0.02479142 0.0828155 -0.00028653332 -0.064506814 0.00054528925 -0.068735465 -0.048790522
-0.007470475 -0.066140324 0.03675412 0.022469005 -0.026373522 0.062551335 0.07840074 0.084219106
-0.043960918 0.028348371 0.078076705 -0.0803149 0.06517666 0.032182142 -0.06019847 0.021614503
0.08111805 -0.045177985 -0.081461795 -0.07897793 -0.08220594 -0.04598073 0.038351752 0.0813522
-0.056117456 -0.03724381 -0.04497867 -0.0012169189 -0.021899363 0.038339056 0.058273662 0.022922117
0.017385533 0.027126065 -0.031073427 -0.02143423 -0.065872364 -0.06790702 -0.029990772 -0.03918923
0.041322935 0.02526847 0.058361497 0.0012916654 -0.057022236 0.03271845 -0.06741391 0.07106423
-0.027652595 -0.03744887 -0.05753874 -0.0860531 0.03110465 -0.035955194 0.078926116 -0.057088356
0.08353007 -0.014832665 -0.08539751 0.013708428 -0.07725373 0.016591737 0.07039306 -0.062755086
0.05151099 0.012679996 0.038489632 0.029910892 0.0021920996 -0.050717168 -0.051547803 -0.029259011
-0.08521896 0.046727434 -0.04239555 0.05602529 0.0053994763 -0.0765136 -0.07003576 -0.022827227
-0.039523367 -0.08945521 -0.018653922 -0.029306239 0.045184974 -0.0118441805 0.029077185 0.0425493
0.0042016064 -0.029024981 -0.05643213 -0.02547122 -0.05095977 0.019747483 -0.07219852 0.059801023
-0.041802783 0.058324967 0.053998206 0.04707453 0.067921735 -0.01815508 0.04906121 0.088803865
-0.06975382 0.060346615 -0.06679786 -0.022787983 0.045922384 -0.03337211 0.045136526 0.017275007
0.04282959 -0.024579614 -0.016509186 -0.01424065 0.08087066 0.034587156 0.025398312 0.010991071

rnn.bias_ih_l1 f4 [128]
00000000: 632e 77bd 23f0 393d aec0 193d a7af da3c
00000010: 13c9 bdbd 6c81 c33d cb1e 1ebd af79 a93d
00000020: f756 64bd b94b f83c cabb 913d 1ea5 993d
00000030: 0ec5 cf3d 4f1d 50ba 63aa 863d bd51 02bd
00000040: 21c4 653d 2001 a2bd 8ee3 49bb 74ad 0b3c
00000050: 8701 96bc e591 dcbc 3c13 af3d 6259 49bd
00000060: 655a 073d cbc4 b83d aeb9 53bd 5f8e 01bd
00000070: c2ce 1cbc a1d9 6ebd 0b4d 503c 9afb 083d
00000080: a9ad 9dbd 00f4 513d 7de9 b53d 71ef d53a
00000090: 462c 9b3d 58d0 a23d b937 b53d eec1 a8bd
000000a0: 4707 b43c 003a 9bbd 62e8 8e3d 5a76 1bbc
000000b0: 8134 7f3d 97e6 93bd 04b3 5f3d e9e1 09bd
000000c0: 6cba 88bd f4e8 9fbd a1bb a83c b0df aa3d
000000d0: f340 c3bd cd5b bf3d 8745 163d 4634 71bd
000000e0: 7ff4 973d b4e4 a53d 9715 4c3d 6fc0 8b3d
000000f0: 9a58 2dbd cf24 123d 86b0 27bc 46c2 1a3d
00000100: 877c 57bd bdca 4dbd 2e28 6abd cc52 a63c
00000110: f447 02bd d331 72bd 6ab1 febc 8d40 a63d
00000120: 0cda f13c 12b8 313c a2ad ba3d 25cb afbc
00000130: 498c 353d 1feb c33c 1a9a a53d bf0d 9c3c
00000140: 435a 89bd 637a 47bd f6de 22bd b935 e2bc
00000150: dc1e 4cbb df73 ab3d b952 a8bd 8c7a fcbb
00000160: a3ab 863d cbda 8f3c 5156 bb3d 6bd1 05bd
00000170: a939 09bc 3d8b 06bd cbc4 fbbc e987 693d
00000180: e887 14bd 04fb b63b 2914 99bc 8099 ab3d
00000190: be98 963d df4e 8fbd 25ee 1c3d 3a67 e43c
000001a0: a552 933d 0196 383d 935e 7abc 97c2 16bd
000001b0: 1049 cb3c 744e 483d 67d0 2ebd e8f0 8e3c
000001c0: ed1c dfba 4a2f 83bc 6798 c0bd 5160 73bb
000001d0: d709 5e3d 8b6c 1dbd 0b64 9dbd 0224 7f3d
000001e0: 438a 053d 4aca 8d3d 3225 7ebd ca13 aa3c
000001f0: 4c01 c8bc 180e 5ebd 6a6f 4b3d 4e59 57bd
-0.060346972 0.045395028 0.03753727 0.026695086 -0.092668675 0.0954617 -0.038603585 0.082751624
-0.055747 0.030309545 0.07115896 0.07502197 0.10145007 -0.00079389376 0.065754674 -0.031816233
0.056095246 -0.07910371 -0.00308058 0.008525241 -0.018311275 -0.026925037 0.085485905 -0.049157508
0.03304519 0.0902191 -0.05169075 -0.031629916 -0.009570779 -0.058313016 0.012713681 0.03344307
-0.07699139 0.051258087 0.08882425 0.001632197 0.07576804 0.07949895 0.08848519 -0.08240114
0.021976126 -0.07579422 0.06977917 -0.009488666 0.06230593 -0.07221716 0.054614082 -0.03366271
-0.06676182 -0.07808104 0.020597281 0.08343446 -0.095338725 0.093436815 0.0366874 -0.058887742
0.07419681 0.08100262 0.049825277 0.06823813 -0.042320825 0.035679635 -0.010234958 0.03778293
-0.052608993 -0.050242174 -0.057167225 0.020303153 -0.0318069 -0.059129547 -0.031090457 0.08117781
0.029522918 0.010847108 0.09115149 -0.021459172 0.04432324 0.023915825 0.08086033 0.019049523
-0.06706669 -0.0487007 -0.039763413 -0.027613508 -0.0031146323 0.0837171 -0.08218903 -0.0077050384
0.06575706 0.017560383 0.09147323 -0.03267042 -0.008375564 -0.03284763 -0.030733487 0.05701438
-0.036262423 0.0055841226 -0.01868637 0.08378887 0.07353352 -0.06997465 0.03831305 0.027881254
0.071934976 0.04506493 -0.015281337 -0.03680667 0.024815112 0.048902944 -0.042679217 0.017448857
-0.001702217 -0.01601376 -0.094040684 -0.0037136266 0.054208603 -0.038433593 -0.07685097 0.0622902
0.03260256 0.06923349 -0.06204719 0.02076139 -0.02441468 -0.05421266 0.0496668 -0.052575402

rnn.bias_hh_l1 f4 [128]
00000000: acbe 45bd 84df 89bd 66e7 b63c f4e7 8f3d
00000010: 1c17 b5bd f66a 883d 6fb7 5b3d 0ba5 2ebd
00000020: dd87 5abd 665d 1ebd f081 41bc f9d0 c6bc
00000030: 51fb 7fbc bcd8 713d 0065 c5bd 5a28 15bd
00000040: 8a85 aa3c b00b 2b3a d12d c13d eeec 803b
00000050: b503 0e3d d353 8ebd 1ce9 96bd 0833 b63d
00000060: 7e26 f63c 2139 bd3d 0fa5 363d fa54 33bd
00000070: bd73 90bd 1e6c 973d 1570 30bd 7227 c6bd
00000080: 7846 753d 39de 1dbd ac46 3c3d b9fb 3f3d
00000090: 4d25 8bbd 73b9 653d d553 e8ba 9548 8fbd
000000a0: d897 89bd 68ba 76bb 02d6 62bd d1a1 8bbd
000000b0: 11c8 3cbd a340 3fbd dc06 84bd aa7e de3b
000000c0: 22d8 ba3b a803 213d c02a ecbc 32dc ad3d
000000d0: ec62 41bd 530f 42bd fa30 b8bc aaac 173d
000000e0: 0437 98bc e380 123d a9de 1a3d 2bbd 67bd
000000f0: 5b16 533d 37a4 8e3d f761 e53b f111 64bc
00000100: 5466 783d 2dbd 35bd 3d0a cebd 3e2c 7a3d
00000110: 6e7f 6cbd 32c4 b43c c248 1abd dc49 8a3d
00000120: 8104 b13c 99da 3e3d 0bc9 8fbd b0ae 96bd
00000130: a6b9 2ebd 05c0 9bbd 9678 73bd 6307 5fbd
00000140: 600c 9d3d 69ce 67bd c18b 243d 6eac 9bbd
00000150: 5306 233c a154 d33c 6ddd 9b3d cabe c7bd
00000160: 7bf4 5b3d 5ba6 863c 3b78 2d3d 8a38 babd
00000170: ee28 153d fe2a c4bc f279 87bd a700 9cbd
00000180: 1f83 5fbc d56b 6dbb 754c 8a3d 1f96 833a
00000190: 75fa ef3b d343 78bd 1420 953d 225b ae3b
000001a0: 57a4 9cbc 167c 8cbd c7c7 763d 75c3 a9bc
000001b0: d63e 87bd d924 be3d 10a2 e33c 9791 16bd
000001c0: dd8d 573d 8eca ab3d ebfc 88bd d0a8 bcbd
000001d0: 6a94 8d3d cc9f 813d fcb0 0d3c 541d 5d3d
000001e0: 9187 22bc c038 9b3d 8a67 b1bd 83cd 79bd
000001f0: 01d6 88bd 5535 9c3d 5487 133d 8d3e 96bd
-0.048277542 -0.06732085 0.022327136 0.070266634 -0.088422984 0.06661026 0.053641733 -0.042637866
-0.053352226 -0.03866329 -0.011810765 -0.024269568 -0.015623883 0.059044585 -0.09638405 -0.036415435
0.02081563 0.0006524874 0.09432567 0.003934494 0.034671504 -0.06949582 -0.07368681 0.08896452
0.030047651 0.09239412 0.044591006 -0.04378221 -0.07053325 0.073936686 -0.04307564 -0.09675492
0.059881657 -0.038542006 0.045965835 0.04687092 -0.06794224 0.05608506 -0.0017725179 -0.06996266
-0.06718415 -0.0037647728 -0.055379875 -0.068179734 -0.046089236 -0.0466925 -0.06446621 0.006790002
0.0057020346 0.039310127 -0.028828979 0.084892645 -0.04721348 -0.047377896 -0.022484291 0.0370299
-0.018580921 0.035767447 0.03781 -0.05657689 0.05153499 0.06964915 0.0070002037 -0.013920293
0.060644463 -0.044369865 -0.100605465 0.06107735 -0.057738714 0.02206621 -0.037667044 0.06752369
0.021608593 0.04659519 -0.07020768 -0.07357538 -0.042657517 -0.07604984 -0.05944117 -0.054450404
0.07668376 -0.056593332 0.040172342 -0.07601248 0.009950238 0.02579719 0.07610593 -0.09753187
0.05369995 0.016436746 0.04235099 -0.09092815 0.036415987 -0.023946282 -0.06615056 -0.07617312
-0.013642102 -0.0036227603 0.06752864 0.0010039246 0.007323558 -0.060611557 0.07281509 0.0053209225
-0.019121332 -0.06859605 0.060249116 -0.020723084 -0.06603782 0.09284372 0.027787238 -0.03675994
0.052625526 0.083882436 -0.06688865 -0.09211886 0.06913073 0.06329307 0.008648153 0.053983048
-0.009920017 0.075791836 -0.08662327 -0.060987007 -0.06681443 0.0762736 0.03601773 -0.07336149
